models/fewshot/best_model.tar (torch_old, 461576 bytes, 48 tensors)

feature.trunk.0.C.weight f4 [64, 1, 3, 3]
000000 f5 95 0c 3e ee 0a 51 3d 20 db d2 bd a2 35 28 3e
       0.13729079 0.051035814 -0.10295701 0.1642671
000010 80 23 c4 3d 04 0c ab 3d 78 47 f7 bd 03 7a 68 be
       0.095770836 0.08351901 -0.120741785 -0.22702794
000020 2f d1 e8 bd 97 d7 9e 3e 26 6a d4 3d 46 2f e0 3c
       -0.113680236 0.31023857 0.10371809 0.027366292
000030 00 9a a6 3d 56 f7 03 bd 94 57 2c 3c 59 0a 4c bd
       0.08134842 -0.0322183 0.010518927 -0.049814556
000040 18 e7 f3 bd 02 d8 17 be dd 22 f4 bd c3 cf 95 be
       -0.11909312 -0.14828494 -0.11920712 -0.29260072
000050 f5 bf 80 bd 26 6c a3 bc b7 c4 04 bd 07 af 97 3d
       -0.06286613 -0.01994903 -0.032414164 0.07406431
000060 99 12 7b 3d 0a 36 8c bd 20 aa 3c 3e 5b 3e 4b 3e
       0.061297033 -0.06846245 0.18424273 0.19848005
000070 cb 0f 1f 3c 70 43 b3 bd 46 70 e9 3d 39 8b a9 3c
       0.009708355 -0.08753097 0.113983676 0.02069627
000080 e8 d9 d0 bd 7d 86 30 bd de e4 3e be d2 fb 01 be
       -0.10197812 -0.043097008 -0.18641993 -0.12693718
000090 f5 5a 04 be 68 01 6d 3e 3c 8e 5b bd 7c 03 e5 3c
       -0.12925322 0.23145068 -0.053602442 0.027955763
0000a0 10 e2 64 3e ca 93 f4 bd 01 63 a1 bd a0 e0 d3 3b
       0.22351861 -0.11942251 -0.078802116 0.0064659864
0000b0 38 a8 2a be 5f 07 88 3d 69 48 da 3d 99 b6 d4 3b
       -0.16665733 0.06642031 0.106583424 0.006491494
0000c0 a0 7b 5a 3d ed 4c f8 bd 51 20 a5 bc ad 9f 86 3d
       0.053340554 -0.121240474 -0.020157011 0.065734245
0000d0 c3 0d 8e be 66 b9 8e 3d 7a a5 4b bb 55 71 92 be
       -0.27744874 0.06968956 -0.0031073974 -0.2860209
0000e0 39 69 08 bd 39 f0 de bb 7f d9 98 bd db 79 ba bd
       -0.033303473 -0.006803539 -0.07463359 -0.09105273
0000f0 96 95 02 be f8 b5 09 bd 41 0c 2f 3d f0 c0 ab 3d
       -0.12752375 -0.033620805 0.042736296 0.08386409
000100 66 a5 0c 3e 02 06 86 bd f7 9f 24 be 9d 04 5d be
       0.1373497 -0.06544115 -0.16076647 -0.21583791
000110 af c4 90 3d 33 71 8d 3d 10 94 0b 3e 47 9b 10 bd
       0.070687644 0.06906357 0.136307 -0.035304334
000120 74 13 1e be b3 67 73 3d 85 be 45 3e f9 de 56 bd
       -0.15437108 0.059425067 0.19310959 -0.052458737
000130 6f 5a d9 bd b3 16 00 bd 01 98 84 be 49 e5 61 bb
       -0.10612952 -0.031271648 -0.2589722 -0.003446894
000140 de 28 89 3c 1d e4 43 3e 2b be 0b be 00 bc 6e bd
       0.01674312 0.19129987 -0.13646762 -0.05828476
000150 8a 35 a3 3d 06 03 89 bc d9 a9 42 be a6 09 1a 3e
       0.07969196 -0.016725074 -0.19010104 0.15042743
000160 43 e9 ac bb 9c 65 23 be 4c 73 ba bb ad 57 34 3d
       -0.0052768304 -0.1595673 -0.005690014 0.044028927
000170 c3 45 56 3b 7a 0f 08 bd 12 94 2c be d8 93 51 3e
       0.003269539 -0.033217885 -0.1685336 0.20466554
000180 08 e3 27 3e 6c 93 75 be 81 5c 95 3d df d7 09 be
       0.163952 -0.23982018 0.07293034 -0.13461255
000190 e1 d2 80 bc b3 c6 13 3d 2e 95 38 be f7 e4 18 3d
       -0.015725555 0.036078166 -0.18025658 0.037327733
0001a0 9f 18 59 3e a6 18 04 be 57 cb 04 3e ac ad 15 3d
       0.21200798 -0.12900028 0.12968193 0.03654258
0001b0 53 4a 0b 3e 24 50 35 bd d7 6e c6 3d 2f b9 91 bd
       0.13602571 -0.04426588 0.0968911 -0.07115399
0001c0 68 12 cd 3d 62 0a b5 3c 9d 56 ce 3d ab 83 45 3e
       0.10013276 0.022099677 0.10075114 0.19288509
0001d0 76 43 97 bc 4c 58 20 be 08 13 1e 3e ed 80 98 3d
       -0.018464785 -0.15658683 0.15436947 0.07446466
0001e0 4e 8f 0f 3e 0b 7f 39 3c 76 38 96 bb ab 72 17 3e
       0.1401951 0.011321793 -0.0045843674 0.14789836
0001f0 ba a7 d4 bd b2 20 3d be 8c 6d 13 3e 3c f2 2f ba
       -0.10383554 -0.18469504 0.14397258 -0.0006711816
000200 5f a8 43 3e 99 c4 6f bd ce 11 86 3d 00 99 bf bc
       0.19107197 -0.0585371 0.06546365 -0.023388386
000210 2a a8 0e be 98 eb f1 bd d7 b7 db bd 4b b2 89 3e
       -0.13931337 -0.11812514 -0.10728424 0.2689384
000220 dd 48 ae 3d 0f cc d9 bd b5 2f 7b 3d 6d 71 e6 bb
       0.08509991 -0.10634624 0.061324794 -0.0070325644
000230 3c 4e 40 be a8 e5 0d 3e ec 41 dd bc 5a bf 13 be
       -0.18779844 0.13857138 -0.027008973 -0.14428464
000240 9a 0d b7 3d e2 81 74 3c 4f 15 b2 bd f6 c8 92 3e
       0.08938141 0.014923545 -0.086954705 0.28668946
000250 61 aa 28 bd d1 f2 1b be 1f 09 4e 3e 5e c7 65 3d
       -0.04117811 -0.15229346 0.20120667 0.056098334
000260 07 b3 a1 bd 37 63 be 3d 9b 8a e6 3d 87 66 72 be
       -0.07895475 0.092962675 0.11256906 -0.23671924
000270 54 f8 7c bd f8 ba f0 3d 68 2d 3b be ec a7 28 3e
       -0.06176026 0.117544115 -0.1827904 0.16470307
000280 56 22 d8 3d 13 43 57 be ac 3e 67 be 9a 55 ea 3c
       0.10553424 -0.2102168 -0.22582501 0.028605271
000290 07 2e d0 3d 8b c6 09 be 68 e8 a3 bd 49 62 b2 bb
       0.10165029 -0.13454644 -0.08003312 -0.0054438454
0002a0 75 e3 45 3e f2 d2 43 3c 34 36 08 3e 59 ee 18 bc
       0.19325049 0.011952149 0.13301927 -0.00933417
0002b0 77 33 89 3e 41 cd 63 3e 85 3a 66 3d d9 f6 a1 bc
       0.26797077 0.22246267 0.056208152 -0.019771026
0002c0 18 7a d6 bd 76 81 df bd e1 3b 14 be 72 b8 67 bd
       -0.10472506 -0.109133646 -0.14475967 -0.056572385
0002d0 67 c7 31 bd 26 d3 54 3d bd c6 5a 3b 9b e7 3e be
       -0.043403056 0.05195918 0.0033382617 -0.18643038
0002e0 9a 3d 8c 3d cf d5 0c be 90 c2 dd 3c 8d b0 f5 3d
       0.06847687 -0.13753437 0.027070314 0.11996565
0002f0 fa 6b 32 be 52 f8 7a 3e c4 0d fb 3c 40 8d f4 bd
       -0.17424002 0.24508789 0.030646212 -0.11941004
000300 4c 7a 19 3e 2a 7e 17 bd 16 57 ec bd 3d 2f 88 3c
       0.14988059 -0.036985554 -0.11540048 0.016624087
000310 ab 25 3e bd 08 dc 63 bd dc cb c4 bd 54 b0 07 3e
       -0.04642264 -0.05562976 -0.096091956 0.13250858
000320 59 6e fb 3c 72 7c 08 be c4 1a 3a 3e fd 46 a4 3d
       0.030692266 -0.13328722 0.18174273 0.080213524
000330 2d b7 0f be 4f af e8 3d 12 67 17 3d b3 b9 33 3e
       -0.1403472 0.113615625 0.03696353 0.17551307
000340 cd 05 8f bc d8 b8 57 be 3d 99 30 3d 84 7a f8 3d
       -0.01745882 -0.21066606 0.04311489 0.12132743
000350 2e c8 b1 bd 0c b4 b1 bd 88 bf 79 3d 04 49 c2 bd
       -0.08680759 -0.08676919 0.060973674 -0.09486583
000360 07 e3 2f 3b 70 6c 14 3d d2 a8 65 3d de 2c 98 bb
       0.00268382 0.036236227 0.056069203 -0.0046440205
000370 6c c0 66 3e cf 91 1d 3c b1 93 4a bd bb 31 cb 3e
       0.2253434 0.009617283 -0.049457256 0.3968638
000380 fd b8 df 3d ac cd 0c 3d d4 36 16 be a8 4b 41 3d
       0.109239556 0.03437583 -0.14669353 0.047191292
000390 92 3d 15 bd 57 43 f7 bd 9d 89 06 3e 8c f8 b7 bc
       -0.03643567 -0.12073391 0.13138433 -0.022457384
0003a0 d8 b3 ba bd ba 38 3d 3e 0c 62 f1 bb f7 9b 7c be
       -0.09116334 0.1847867 -0.0073664244 -0.24668871
0003b0 a1 53 b0 3a 0d 63 7c bd 45 48 aa be 19 3d 00 bd
       0.0013452658 -0.0616179 -0.33258262 -0.031308267
0003c0 dc f3 aa bb ab eb fa 3d 63 ba 7d bc c4 74 b0 3d
       -0.0052170586 0.12251981 -0.015486333 0.08616021
0003d0 c6 b0 81 be b9 0a 79 bd bb 00 32 3e 22 48 8a 3c
       -0.2533018 -0.06080124 0.17383091 0.016880099
0003e0 80 87 b2 bc 95 c9 9a bd 99 41 31 3e 9d 23 ac bc
       -0.021793127 -0.0755798 0.1731018 -0.021013075
0003f0 55 6a 9f bd af 42 c5 bd 05 b6 6a bd cd b9 22 be
       -0.07783953 -0.096318595 -0.057302494 -0.1589119

feature.trunk.0.C.bias f4 [64]
000000 cd fb 5c 3d c4 70 e2 be 97 94 d8 bd 38 24 9f be
       0.053951073 -0.44226658 -0.10575216 -0.3108232
000010 ac 6c 82 3c 01 7d 1c be 1a ba 09 bc 6b e5 1f 3e
       0.01592096 -0.1528206 -0.0084061865 0.1561486
000020 7d 20 4d 3e 68 04 da bc ea bf ac 3d 6e 32 0f be
       0.20031925 -0.02661343 0.08435042 -0.13984081
000030 76 69 b6 bc 3f ba 14 be 35 46 e5 3c b0 65 9e be
       -0.022267085 -0.14524172 0.027987579 -0.30936956
000040 7a 0c 6c 3e 85 70 18 be f4 00 1b bc e1 00 0c be
       0.23051634 -0.14886673 -0.009460676 -0.1367221
000050 9c ca 38 3e ca 68 37 bd a7 52 23 be cf d3 13 be
       0.1804604 -0.04477767 -0.15949498 -0.14436267
000060 99 b9 89 3d 80 01 15 bd 48 d0 a2 3d 6a e3 88 3a
       0.06724853 -0.036378384 0.07949883 0.0010443751
000070 95 92 ff be ec 5c c5 3e 79 cc 3a 3d a0 e4 97 3e
       -0.4991652 0.38547456 0.045605157 0.29666615
000080 3a 31 43 3d 9f ff 5f bd cb 1a 9d 3e 1a 18 8d 3e
       0.047654368 -0.05468714 0.30684504 0.2755745
000090 15 69 c6 be 4f 68 b6 be 17 39 10 3c 52 e9 3e bc
       -0.38752046 -0.35626456 0.008802674 -0.011652308
0000a0 7e 95 b8 be ed ff 09 3e 21 9f 0a 3e 2d 62 14 be
       -0.36051553 0.13476534 0.13537265 -0.14490576
0000b0 de 97 ed ba 86 98 12 be bf e7 3a bd a3 ae 9f be
       -0.0018126925 -0.14315996 -0.045631167 -0.31187925
0000c0 2e 10 83 3d 0e 28 45 be 0f 2f c5 3e 02 8f 30 3d
       0.063995704 -0.19253561 0.38512465 0.043105133
0000d0 8e b0 2b 3e cb fc 2c be ec 66 83 3d c2 50 33 3e
       0.16766569 -0.16893308 0.06416115 0.17511275
0000e0 f1 30 88 bb f3 d2 8c 3e 76 8e 02 bc 57 a2 2d bd
       -0.004156225 0.2750469 -0.007968536 -0.042391147
0000f0 78 de 33 be 1b e9 69 be a4 f3 15 be 90 bd 7a bd
       -0.17565334 -0.22842829 -0.14643723 -0.061215937

feature.trunk.0.BN.weight f4 [64]
000000 50 92 fb 3e 91 3b 71 3f 8f 03 4d 3f b1 4b 26 3f
       0.49135065 0.94231516 0.80083555 0.64959246
000010 e5 df 81 3f 0b ce 91 3f 76 e2 05 3f df 15 89 3f
       1.0146452 1.1391004 0.52298677 1.07098
000020 74 62 01 3f 93 70 5b 3f 81 8a 9e 3f 8b 50 98 3f
       0.5054085 0.8571865 1.2386018 1.189958
000030 d0 62 cd 3e 68 0d 73 3f 8e 7c 9e 3f b6 3a a7 3f
       0.4011445 0.9494233 1.2381761 1.3064792
000040 55 d6 73 3f 20 79 4b 3f 2e 1a 7d 3f 80 f8 9f 3f
       0.9524892 0.794817 0.9886807 1.2497711
000050 8c fd 09 3f f9 c5 96 3f 3f 8d 67 3f d3 d8 19 3f
       0.53902507 1.1779166 0.904499 0.6009647
000060 d1 a9 54 3f 8a d4 a5 3f 5d 7d 04 3f 6e f6 9d 3f
       0.8307162 1.2955487 0.5175379 1.2340829
000070 57 79 9a 3f b0 f2 13 3f 1c 05 80 3f dd 7d 99 3f
       1.206828 0.57792187 1.0001559 1.1991535
000080 06 64 74 3f c0 8a 11 3f 2c 42 53 3f fe 55 5e 3f
       0.95465124 0.5685234 0.82522845 0.86849964
000090 3e c4 de 3e ea e1 8c 3f 7f fb 68 3f 68 6c 75 3f
       0.43509096 1.1006444 0.9100875 0.9586854
0000a0 52 06 86 3f b7 2e 92 3f 41 19 51 3f 86 bb 30 3f
       1.0470679 1.1420506 0.8167916 0.6903614
0000b0 e0 c7 7a 3f 15 c1 98 3f 35 93 5e 3f 88 ab af 3f
       0.97961235 1.1933924 0.8694337 1.3724222
0000c0 e2 e1 f3 3e 14 87 8b 3f a8 57 46 3f d3 fe 15 3f
       0.47633272 1.0900598 0.774775 0.58591956
0000d0 1a 62 23 3f 86 72 6b 3f 11 58 41 3f c7 fc 5e 3f
       0.63821566 0.91971624 0.75525004 0.8710446
0000e0 7b 62 3d 3f 43 95 a5 3f 8f 57 b7 3f 5a f6 83 3f
       0.73978394 1.2936176 1.4323596 1.0309556
0000f0 f7 cd 97 3f b2 8e 1c 3f 0c 1d 2f 3f dd 5d 87 3f
       1.185973 0.61155236 0.68403697 1.057552

feature.trunk.0.BN.bias f4 [64]
000000 43 d6 64 be 48 20 e7 be e4 e6 95 be 5f b7 3d be
       -0.2234736 -0.45141816 -0.29277718 -0.18526982
000010 df 37 11 be 5d 34 78 3a 03 5b 21 be 5c f8 fa 3d
       -0.1418147 0.0009468252 -0.15757374 0.12254402
000020 03 e5 ce be 10 fb cd bd 5b d6 6a bd 00 ca 30 be
       -0.40409097 -0.10057652 -0.05733333 -0.17264557
000030 41 ca fd be 23 66 86 be f4 5a 6d 3e 7c be 1b be
       -0.4956837 -0.262498 0.23179227 -0.15209383
000040 53 f6 b8 be 82 0b 9d be 99 ff d5 3e 21 52 e8 bd
       -0.3612543 -0.30672842 0.41796568 -0.1134379
000050 d2 56 9d be 28 79 14 bd e4 4f da bd 77 bd 7d be
       -0.307303 -0.036248356 -0.10659769 -0.24779306
000060 79 c7 7a be 34 20 db bd f2 a3 d8 be 7c f9 b5 bd
       -0.24490155 -0.10699502 -0.4231258 -0.08885476
000070 3a 1f 02 3e 57 d4 7b be a5 17 41 be 7c 50 03 be
       0.12707224 -0.2459272 -0.18856676 -0.12823671
000080 ef f4 0e 3c 45 1c c9 be 17 ea ad be 6f a4 e0 bb
       0.008725389 -0.3927938 -0.3396766 -0.0068555395
000090 10 f9 a4 be be 77 e5 bd f6 e3 a1 be 5d 55 a3 be
       -0.3222127 -0.1120448 -0.31619233 -0.31901065
0000a0 d1 06 c8 3e 93 95 39 3e 4e b0 5b be 67 2b 21 be
       0.390677 0.18123464 -0.21453974 -0.15739213
0000b0 48 c8 2e be f3 8b 57 be 67 93 b7 be 90 49 11 3e
       -0.17068589 -0.2104948 -0.35854647 0.14188218
0000c0 bc d1 81 be 1d 9e 47 be e0 e5 69 be 82 b0 e4 bd
       -0.25355327 -0.19493909 -0.22841597 -0.11166479
0000d0 df bb 5d be e6 22 6c 3c ca e9 74 bd b3 ee f2 be
       -0.21653698 0.014412617 -0.05979327 -0.47447738
0000e0 08 d0 ad be fa 47 76 3c 66 ce 4e 3e b0 b8 ad be
       -0.33947778 0.015031809 0.20195922 -0.33929968
0000f0 da b0 04 bd 80 37 d6 be 78 aa 91 be 45 a6 46 be
       -0.03239522 -0.41839218 -0.2845037 -0.19399364

feature.trunk.0.BN.running_mean f4 [64]
000000 7a 57 86 3d 4a 45 f7 be 5d cc 21 bd 59 80 84 be
       0.065596536 -0.4829505 -0.039501537 -0.25879171
000010 26 e0 d0 3c 59 e7 16 be 24 8a 0e 3e 89 3e 19 3e
       0.025497507 -0.1473669 0.13919884 0.14965262
000020 92 63 8e 3e 53 83 73 3c aa d2 98 3d 7e 60 15 be
       0.2781034 0.014862853 0.07462056 -0.1458759
000030 5c 6b 15 be 84 35 2c be 15 75 29 3d bc 20 a6 be
       -0.14591736 -0.1681729 0.041371424 -0.3244685
000040 44 b9 24 3e 9d 46 fc bd 97 0e 87 bc 1b 14 22 be
       0.16086298 -0.12318156 -0.01648645 -0.15827982
000050 73 a0 79 3e 68 97 76 bd 57 6c 5d be ea aa f4 bd
       0.24377613 -0.060202986 -0.2162336 -0.11946662
000060 2d 20 02 be 4a d2 13 bd 96 90 5f 3e 93 24 8a bb
       -0.12707587 -0.03608922 0.21832499 -0.004215786
000070 6b b1 00 bf 07 f4 eb 3e 3b 3e 9d bc 07 09 9b 3e
       -0.5027072 0.46084616 -0.019194713 0.30280325
000080 26 41 97 3d a3 89 51 3c d7 21 a1 3e 56 92 8b 3e
       0.07385473 0.012789163 0.3147113 0.27260083
000090 cb 7b aa be 5d 85 b4 be b1 79 59 bc c7 19 d0 3c
       -0.33297572 -0.35257998 -0.013273642 0.025402917
0000a0 a3 74 ba be a7 de 11 3e 48 58 40 3d 0a 40 73 bd
       -0.36417112 0.14245091 0.04695919 -0.059387244
0000b0 a5 85 81 bd 46 04 47 be c8 a6 34 bd f2 16 a6 be
       -0.06324319 -0.19435224 -0.044104367 -0.3243938
0000c0 4c 6a d6 3d 6d 04 74 be 2d bd 8d 3e e0 b7 c6 3d
       0.10469493 -0.23829813 0.27683392 0.0970304
0000d0 78 68 65 3e f4 fd 25 be 44 89 ca 3d ae 23 b0 3d
       0.22403133 -0.16210157 0.098894626 0.08600555
0000e0 3c a3 56 3d 72 fa 88 3e 87 47 b6 bb 8d 8b 0d be
       0.052401766 0.26753575 -0.005562726 -0.13822766
0000f0 a8 1c 3b be f1 75 29 be 42 c6 a1 bd e0 47 af bd
       -0.1827265 -0.16548897 -0.07899143 -0.08558631

feature.trunk.0.BN.running_var f4 [64]
000000 a2 1c e6 3b fb 8b 85 3c 04 ff cd 3c 88 ca a1 3c
       0.0070224563 0.0163021 0.025146015 0.019749895
000010 29 f0 c2 3b 01 54 70 3b 73 25 ba 3d dc e9 a4 3a
       0.0059490395 0.0036671164 0.09089174 0.0012581903
000020 9f 63 03 3d 14 02 a7 3c bf 46 79 3b 14 3e 38 3c
       0.032077428 0.020386733 0.0038036553 0.011245269
000030 66 95 80 3d 11 df b2 3b ee 5d aa 3b 94 1e 8d 3c
       0.062784955 0.0054587205 0.0051991856 0.017226495
000040 58 a4 0c 3d a4 51 91 3c e0 b0 c7 3b d3 b9 0e 3c
       0.034336418 0.017739125 0.006094083 0.008711296
000050 87 94 97 3c 42 12 36 3c c0 ba ae 3c c1 f1 0e 3c
       0.01850344 0.011112751 0.021329284 0.008724631
000060 95 1f 1f 3e 28 10 ae 3b 11 1e ac 3d c1 ec 60 3b
       0.15539391 0.0053119846 0.08404172 0.0034320804
000070 bb e4 ba 3b 00 ae f7 3c b7 cc b3 3c e5 4c 9d 3b
       0.0057035363 0.030234337 0.021948202 0.0048004263
000080 2c 9b 11 3c 4b 0c c6 3c 38 50 3b 3c c8 ec 68 3b
       0.0088870935 0.024175784 0.0114327 0.0035541523
000090 00 92 76 3c 7a 7f 57 3c 62 22 af 3b b4 84 5d 3c
       0.015049458 0.013152951 0.005344675 0.013520408
0000a0 d9 db 1d 3c b5 c7 f5 3b 9d 79 10 3d 7e 63 14 3d
       0.009634935 0.0075006136 0.03527223 0.036227696
0000b0 9a 59 a5 3c 3b 35 cd 3c 99 d7 e6 3b 59 1c 72 3b
       0.020184327 0.025049796 0.007044744 0.0036943166
0000c0 4c 8f 42 3c 49 90 b8 3c 4a 1e 5e 3d 62 51 5f 3c
       0.011874985 0.022529738 0.054228105 0.013630243
0000d0 5e 8f b1 3c b3 21 ee 3a 67 d2 ec 3b b8 45 0b 3d
       0.021674808 0.0018168002 0.0072272304 0.034002036
0000e0 81 4b 96 3c 7e 1d 4e 3b 92 1b d5 3b fe 06 45 3d
       0.01834655 0.0031450684 0.006503531 0.04810237
0000f0 98 e0 7b 3b f8 e9 d3 3c 90 02 01 3d 09 ec bd 3b
       0.003843343 0.025868401 0.031496584 0.00579596

feature.trunk.0.trunk.1.weight f4 [64, 1, 3, 3]
000000 f5 95 0c 3e ee 0a 51 3d 20 db d2 bd a2 35 28 3e
       0.13729079 0.051035814 -0.10295701 0.1642671
000010 80 23 c4 3d 04 0c ab 3d 78 47 f7 bd 03 7a 68 be
       0.095770836 0.08351901 -0.120741785 -0.22702794
000020 2f d1 e8 bd 97 d7 9e 3e 26 6a d4 3d 46 2f e0 3c
       -0.113680236 0.31023857 0.10371809 0.027366292
000030 00 9a a6 3d 56 f7 03 bd 94 57 2c 3c 59 0a 4c bd
       0.08134842 -0.0322183 0.010518927 -0.049814556
000040 18 e7 f3 bd 02 d8 17 be dd 22 f4 bd c3 cf 95 be
       -0.11909312 -0.14828494 -0.11920712 -0.29260072
000050 f5 bf 80 bd 26 6c a3 bc b7 c4 04 bd 07 af 97 3d
       -0.06286613 -0.01994903 -0.032414164 0.07406431
000060 99 12 7b 3d 0a 36 8c bd 20 aa 3c 3e 5b 3e 4b 3e
       0.061297033 -0.06846245 0.18424273 0.19848005
000070 cb 0f 1f 3c 70 43 b3 bd 46 70 e9 3d 39 8b a9 3c
       0.009708355 -0.08753097 0.113983676 0.02069627
000080 e8 d9 d0 bd 7d 86 30 bd de e4 3e be d2 fb 01 be
       -0.10197812 -0.043097008 -0.18641993 -0.12693718
000090 f5 5a 04 be 68 01 6d 3e 3c 8e 5b bd 7c 03 e5 3c
       -0.12925322 0.23145068 -0.053602442 0.027955763
0000a0 10 e2 64 3e ca 93 f4 bd 01 63 a1 bd a0 e0 d3 3b
       0.22351861 -0.11942251 -0.078802116 0.0064659864
0000b0 38 a8 2a be 5f 07 88 3d 69 48 da 3d 99 b6 d4 3b
       -0.16665733 0.06642031 0.106583424 0.006491494
0000c0 a0 7b 5a 3d ed 4c f8 bd 51 20 a5 bc ad 9f 86 3d
       0.053340554 -0.121240474 -0.020157011 0.065734245
0000d0 c3 0d 8e be 66 b9 8e 3d 7a a5 4b bb 55 71 92 be
       -0.27744874 0.06968956 -0.0031073974 -0.2860209
0000e0 39 69 08 bd 39 f0 de bb 7f d9 98 bd db 79 ba bd
       -0.033303473 -0.006803539 -0.07463359 -0.09105273
0000f0 96 95 02 be f8 b5 09 bd 41 0c 2f 3d f0 c0 ab 3d
       -0.12752375 -0.033620805 0.042736296 0.08386409
000100 66 a5 0c 3e 02 06 86 bd f7 9f 24 be 9d 04 5d be
       0.1373497 -0.06544115 -0.16076647 -0.21583791
000110 af c4 90 3d 33 71 8d 3d 10 94 0b 3e 47 9b 10 bd
       0.070687644 0.06906357 0.136307 -0.035304334
000120 74 13 1e be b3 67 73 3d 85 be 45 3e f9 de 56 bd
       -0.15437108 0.059425067 0.19310959 -0.052458737
000130 6f 5a d9 bd b3 16 00 bd 01 98 84 be 49 e5 61 bb
       -0.10612952 -0.031271648 -0.2589722 -0.003446894
000140 de 28 89 3c 1d e4 43 3e 2b be 0b be 00 bc 6e bd
       0.01674312 0.19129987 -0.13646762 -0.05828476
000150 8a 35 a3 3d 06 03 89 bc d9 a9 42 be a6 09 1a 3e
       0.07969196 -0.016725074 -0.19010104 0.15042743
000160 43 e9 ac bb 9c 65 23 be 4c 73 ba bb ad 57 34 3d
       -0.0052768304 -0.1595673 -0.005690014 0.044028927
000170 c3 45 56 3b 7a 0f 08 bd 12 94 2c be d8 93 51 3e
       0.003269539 -0.033217885 -0.1685336 0.20466554
000180 08 e3 27 3e 6c 93 75 be 81 5c 95 3d df d7 09 be
       0.163952 -0.23982018 0.07293034 -0.13461255
000190 e1 d2 80 bc b3 c6 13 3d 2e 95 38 be f7 e4 18 3d
       -0.015725555 0.036078166 -0.18025658 0.037327733
0001a0 9f 18 59 3e a6 18 04 be 57 cb 04 3e ac ad 15 3d
       0.21200798 -0.12900028 0.12968193 0.03654258
0001b0 53 4a 0b 3e 24 50 35 bd d7 6e c6 3d 2f b9 91 bd
       0.13602571 -0.04426588 0.0968911 -0.07115399
0001c0 68 12 cd 3d 62 0a b5 3c 9d 56 ce 3d ab 83 45 3e
       0.10013276 0.022099677 0.10075114 0.19288509
0001d0 76 43 97 bc 4c 58 20 be 08 13 1e 3e ed 80 98 3d
       -0.018464785 -0.15658683 0.15436947 0.07446466
0001e0 4e 8f 0f 3e 0b 7f 39 3c 76 38 96 bb ab 72 17 3e
       0.1401951 0.011321793 -0.0045843674 0.14789836
0001f0 ba a7 d4 bd b2 20 3d be 8c 6d 13 3e 3c f2 2f ba
       -0.10383554 -0.18469504 0.14397258 -0.0006711816
000200 5f a8 43 3e 99 c4 6f bd ce 11 86 3d 00 99 bf bc
       0.19107197 -0.0585371 0.06546365 -0.023388386
000210 2a a8 0e be 98 eb f1 bd d7 b7 db bd 4b b2 89 3e
       -0.13931337 -0.11812514 -0.10728424 0.2689384
000220 dd 48 ae 3d 0f cc d9 bd b5 2f 7b 3d 6d 71 e6 bb
       0.08509991 -0.10634624 0.061324794 -0.0070325644
000230 3c 4e 40 be a8 e5 0d 3e ec 41 dd bc 5a bf 13 be
       -0.18779844 0.13857138 -0.027008973 -0.14428464
000240 9a 0d b7 3d e2 81 74 3c 4f 15 b2 bd f6 c8 92 3e
       0.08938141 0.014923545 -0.086954705 0.28668946
000250 61 aa 28 bd d1 f2 1b be 1f 09 4e 3e 5e c7 65 3d
       -0.04117811 -0.15229346 0.20120667 0.056098334
000260 07 b3 a1 bd 37 63 be 3d 9b 8a e6 3d 87 66 72 be
       -0.07895475 0.092962675 0.11256906 -0.23671924
000270 54 f8 7c bd f8 ba f0 3d 68 2d 3b be ec a7 28 3e
       -0.06176026 0.117544115 -0.1827904 0.16470307
000280 56 22 d8 3d 13 43 57 be ac 3e 67 be 9a 55 ea 3c
       0.10553424 -0.2102168 -0.22582501 0.028605271
000290 07 2e d0 3d 8b c6 09 be 68 e8 a3 bd 49 62 b2 bb
       0.10165029 -0.13454644 -0.08003312 -0.0054438454
0002a0 75 e3 45 3e f2 d2 43 3c 34 36 08 3e 59 ee 18 bc
       0.19325049 0.011952149 0.13301927 -0.00933417
0002b0 77 33 89 3e 41 cd 63 3e 85 3a 66 3d d9 f6 a1 bc
       0.26797077 0.22246267 0.056208152 -0.019771026
0002c0 18 7a d6 bd 76 81 df bd e1 3b 14 be 72 b8 67 bd
       -0.10472506 -0.109133646 -0.14475967 -0.056572385
0002d0 67 c7 31 bd 26 d3 54 3d bd c6 5a 3b 9b e7 3e be
       -0.043403056 0.05195918 0.0033382617 -0.18643038
0002e0 9a 3d 8c 3d cf d5 0c be 90 c2 dd 3c 8d b0 f5 3d
       0.06847687 -0.13753437 0.027070314 0.11996565
0002f0 fa 6b 32 be 52 f8 7a 3e c4 0d fb 3c 40 8d f4 bd
       -0.17424002 0.24508789 0.030646212 -0.11941004
000300 4c 7a 19 3e 2a 7e 17 bd 16 57 ec bd 3d 2f 88 3c
       0.14988059 -0.036985554 -0.11540048 0.016624087
000310 ab 25 3e bd 08 dc 63 bd dc cb c4 bd 54 b0 07 3e
       -0.04642264 -0.05562976 -0.096091956 0.13250858
000320 59 6e fb 3c 72 7c 08 be c4 1a 3a 3e fd 46 a4 3d
       0.030692266 -0.13328722 0.18174273 0.080213524
000330 2d b7 0f be 4f af e8 3d 12 67 17 3d b3 b9 33 3e
       -0.1403472 0.113615625 0.03696353 0.17551307
000340 cd 05 8f bc d8 b8 57 be 3d 99 30 3d 84 7a f8 3d
       -0.01745882 -0.21066606 0.04311489 0.12132743
000350 2e c8 b1 bd 0c b4 b1 bd 88 bf 79 3d 04 49 c2 bd
       -0.08680759 -0.08676919 0.060973674 -0.09486583
000360 07 e3 2f 3b 70 6c 14 3d d2 a8 65 3d de 2c 98 bb
       0.00268382 0.036236227 0.056069203 -0.0046440205
000370 6c c0 66 3e cf 91 1d 3c b1 93 4a bd bb 31 cb 3e
       0.2253434 0.009617283 -0.049457256 0.3968638
000380 fd b8 df 3d ac cd 0c 3d d4 36 16 be a8 4b 41 3d
       0.109239556 0.03437583 -0.14669353 0.047191292
000390 92 3d 15 bd 57 43 f7 bd 9d 89 06 3e 8c f8 b7 bc
       -0.03643567 -0.12073391 0.13138433 -0.022457384
0003a0 d8 b3 ba bd ba 38 3d 3e 0c 62 f1 bb f7 9b 7c be
       -0.09116334 0.1847867 -0.0073664244 -0.24668871
0003b0 a1 53 b0 3a 0d 63 7c bd 45 48 aa be 19 3d 00 bd
       0.0013452658 -0.0616179 -0.33258262 -0.031308267
0003c0 dc f3 aa bb ab eb fa 3d 63 ba 7d bc c4 74 b0 3d
       -0.0052170586 0.12251981 -0.015486333 0.08616021
0003d0 c6 b0 81 be b9 0a 79 bd bb 00 32 3e 22 48 8a 3c
       -0.2533018 -0.06080124 0.17383091 0.016880099
0003e0 80 87 b2 bc 95 c9 9a bd 99 41 31 3e 9d 23 ac bc
       -0.021793127 -0.0755798 0.1731018 -0.021013075
0003f0 55 6a 9f bd af 42 c5 bd 05 b6 6a bd cd b9 22 be
       -0.07783953 -0.096318595 -0.057302494 -0.1589119

feature.trunk.0.trunk.1.bias f4 [64]
000000 cd fb 5c 3d c4 70 e2 be 97 94 d8 bd 38 24 9f be
       0.053951073 -0.44226658 -0.10575216 -0.3108232
000010 ac 6c 82 3c 01 7d 1c be 1a ba 09 bc 6b e5 1f 3e
       0.01592096 -0.1528206 -0.0084061865 0.1561486
000020 7d 20 4d 3e 68 04 da bc ea bf ac 3d 6e 32 0f be
       0.20031925 -0.02661343 0.08435042 -0.13984081
000030 76 69 b6 bc 3f ba 14 be 35 46 e5 3c b0 65 9e be
       -0.022267085 -0.14524172 0.027987579 -0.30936956
000040 7a 0c 6c 3e 85 70 18 be f4 00 1b bc e1 00 0c be
       0.23051634 -0.14886673 -0.009460676 -0.1367221
000050 9c ca 38 3e ca 68 37 bd a7 52 23 be cf d3 13 be
       0.1804604 -0.04477767 -0.15949498 -0.14436267
000060 99 b9 89 3d 80 01 15 bd 48 d0 a2 3d 6a e3 88 3a
       0.06724853 -0.036378384 0.07949883 0.0010443751
000070 95 92 ff be ec 5c c5 3e 79 cc 3a 3d a0 e4 97 3e
       -0.4991652 0.38547456 0.045605157 0.29666615
000080 3a 31 43 3d 9f ff 5f bd cb 1a 9d 3e 1a 18 8d 3e
       0.047654368 -0.05468714 0.30684504 0.2755745
000090 15 69 c6 be 4f 68 b6 be 17 39 10 3c 52 e9 3e bc
       -0.38752046 -0.35626456 0.008802674 -0.011652308
0000a0 7e 95 b8 be ed ff 09 3e 21 9f 0a 3e 2d 62 14 be
       -0.36051553 0.13476534 0.13537265 -0.14490576
0000b0 de 97 ed ba 86 98 12 be bf e7 3a bd a3 ae 9f be
       -0.0018126925 -0.14315996 -0.045631167 -0.31187925
0000c0 2e 10 83 3d 0e 28 45 be 0f 2f c5 3e 02 8f 30 3d
       0.063995704 -0.19253561 0.38512465 0.043105133
0000d0 8e b0 2b 3e cb fc 2c be ec 66 83 3d c2 50 33 3e
       0.16766569 -0.16893308 0.06416115 0.17511275
0000e0 f1 30 88 bb f3 d2 8c 3e 76 8e 02 bc 57 a2 2d bd
       -0.004156225 0.2750469 -0.007968536 -0.042391147
0000f0 78 de 33 be 1b e9 69 be a4 f3 15 be 90 bd 7a bd
       -0.17565334 -0.22842829 -0.14643723 -0.061215937

feature.trunk.0.trunk.2.weight f4 [64]
000000 50 92 fb 3e 91 3b 71 3f 8f 03 4d 3f b1 4b 26 3f
       0.49135065 0.94231516 0.80083555 0.64959246
000010 e5 df 81 3f 0b ce 91 3f 76 e2 05 3f df 15 89 3f
       1.0146452 1.1391004 0.52298677 1.07098
000020 74 62 01 3f 93 70 5b 3f 81 8a 9e 3f 8b 50 98 3f
       0.5054085 0.8571865 1.2386018 1.189958
000030 d0 62 cd 3e 68 0d 73 3f 8e 7c 9e 3f b6 3a a7 3f
       0.4011445 0.9494233 1.2381761 1.3064792
000040 55 d6 73 3f 20 79 4b 3f 2e 1a 7d 3f 80 f8 9f 3f
       0.9524892 0.794817 0.9886807 1.2497711
000050 8c fd 09 3f f9 c5 96 3f 3f 8d 67 3f d3 d8 19 3f
       0.53902507 1.1779166 0.904499 0.6009647
000060 d1 a9 54 3f 8a d4 a5 3f 5d 7d 04 3f 6e f6 9d 3f
       0.8307162 1.2955487 0.5175379 1.2340829
000070 57 79 9a 3f b0 f2 13 3f 1c 05 80 3f dd 7d 99 3f
       1.206828 0.57792187 1.0001559 1.1991535
000080 06 64 74 3f c0 8a 11 3f 2c 42 53 3f fe 55 5e 3f
       0.95465124 0.5685234 0.82522845 0.86849964
000090 3e c4 de 3e ea e1 8c 3f 7f fb 68 3f 68 6c 75 3f
       0.43509096 1.1006444 0.9100875 0.9586854
0000a0 52 06 86 3f b7 2e 92 3f 41 19 51 3f 86 bb 30 3f
       1.0470679 1.1420506 0.8167916 0.6903614
0000b0 e0 c7 7a 3f 15 c1 98 3f 35 93 5e 3f 88 ab af 3f
       0.97961235 1.1933924 0.8694337 1.3724222
0000c0 e2 e1 f3 3e 14 87 8b 3f a8 57 46 3f d3 fe 15 3f
       0.47633272 1.0900598 0.774775 0.58591956
0000d0 1a 62 23 3f 86 72 6b 3f 11 58 41 3f c7 fc 5e 3f
       0.63821566 0.91971624 0.75525004 0.8710446
0000e0 7b 62 3d 3f 43 95 a5 3f 8f 57 b7 3f 5a f6 83 3f
       0.73978394 1.2936176 1.4323596 1.0309556
0000f0 f7 cd 97 3f b2 8e 1c 3f 0c 1d 2f 3f dd 5d 87 3f
       1.185973 0.61155236 0.68403697 1.057552

feature.trunk.0.trunk.2.bias f4 [64]
000000 43 d6 64 be 48 20 e7 be e4 e6 95 be 5f b7 3d be
       -0.2234736 -0.45141816 -0.29277718 -0.18526982
000010 df 37 11 be 5d 34 78 3a 03 5b 21 be 5c f8 fa 3d
       -0.1418147 0.0009468252 -0.15757374 0.12254402
000020 03 e5 ce be 10 fb cd bd 5b d6 6a bd 00 ca 30 be
       -0.40409097 -0.10057652 -0.05733333 -0.17264557
000030 41 ca fd be 23 66 86 be f4 5a 6d 3e 7c be 1b be
       -0.4956837 -0.262498 0.23179227 -0.15209383
000040 53 f6 b8 be 82 0b 9d be 99 ff d5 3e 21 52 e8 bd
       -0.3612543 -0.30672842 0.41796568 -0.1134379
000050 d2 56 9d be 28 79 14 bd e4 4f da bd 77 bd 7d be
       -0.307303 -0.036248356 -0.10659769 -0.24779306
000060 79 c7 7a be 34 20 db bd f2 a3 d8 be 7c f9 b5 bd
       -0.24490155 -0.10699502 -0.4231258 -0.08885476
000070 3a 1f 02 3e 57 d4 7b be a5 17 41 be 7c 50 03 be
       0.12707224 -0.2459272 -0.18856676 -0.12823671
000080 ef f4 0e 3c 45 1c c9 be 17 ea ad be 6f a4 e0 bb
       0.008725389 -0.3927938 -0.3396766 -0.0068555395
000090 10 f9 a4 be be 77 e5 bd f6 e3 a1 be 5d 55 a3 be
       -0.3222127 -0.1120448 -0.31619233 -0.31901065
0000a0 d1 06 c8 3e 93 95 39 3e 4e b0 5b be 67 2b 21 be
       0.390677 0.18123464 -0.21453974 -0.15739213
0000b0 48 c8 2e be f3 8b 57 be 67 93 b7 be 90 49 11 3e
       -0.17068589 -0.2104948 -0.35854647 0.14188218
0000c0 bc d1 81 be 1d 9e 47 be e0 e5 69 be 82 b0 e4 bd
       -0.25355327 -0.19493909 -0.22841597 -0.11166479
0000d0 df bb 5d be e6 22 6c 3c ca e9 74 bd b3 ee f2 be
       -0.21653698 0.014412617 -0.05979327 -0.47447738
0000e0 08 d0 ad be fa 47 76 3c 66 ce 4e 3e b0 b8 ad be
       -0.33947778 0.015031809 0.20195922 -0.33929968
0000f0 da b0 04 bd 80 37 d6 be 78 aa 91 be 45 a6 46 be
       -0.03239522 -0.41839218 -0.2845037 -0.19399364

feature.trunk.0.trunk.2.running_mean f4 [64]
000000 7a 57 86 3d 4a 45 f7 be 5d cc 21 bd 59 80 84 be
       0.065596536 -0.4829505 -0.039501537 -0.25879171
000010 26 e0 d0 3c 59 e7 16 be 24 8a 0e 3e 89 3e 19 3e
       0.025497507 -0.1473669 0.13919884 0.14965262
000020 92 63 8e 3e 53 83 73 3c aa d2 98 3d 7e 60 15 be
       0.2781034 0.014862853 0.07462056 -0.1458759
000030 5c 6b 15 be 84 35 2c be 15 75 29 3d bc 20 a6 be
       -0.14591736 -0.1681729 0.041371424 -0.3244685
000040 44 b9 24 3e 9d 46 fc bd 97 0e 87 bc 1b 14 22 be
       0.16086298 -0.12318156 -0.01648645 -0.15827982
000050 73 a0 79 3e 68 97 76 bd 57 6c 5d be ea aa f4 bd
       0.24377613 -0.060202986 -0.2162336 -0.11946662
000060 2d 20 02 be 4a d2 13 bd 96 90 5f 3e 93 24 8a bb
       -0.12707587 -0.03608922 0.21832499 -0.004215786
000070 6b b1 00 bf 07 f4 eb 3e 3b 3e 9d bc 07 09 9b 3e
       -0.5027072 0.46084616 -0.019194713 0.30280325
000080 26 41 97 3d a3 89 51 3c d7 21 a1 3e 56 92 8b 3e
       0.07385473 0.012789163 0.3147113 0.27260083
000090 cb 7b aa be 5d 85 b4 be b1 79 59 bc c7 19 d0 3c
       -0.33297572 -0.35257998 -0.013273642 0.025402917
0000a0 a3 74 ba be a7 de 11 3e 48 58 40 3d 0a 40 73 bd
       -0.36417112 0.14245091 0.04695919 -0.059387244
0000b0 a5 85 81 bd 46 04 47 be c8 a6 34 bd f2 16 a6 be
       -0.06324319 -0.19435224 -0.044104367 -0.3243938
0000c0 4c 6a d6 3d 6d 04 74 be 2d bd 8d 3e e0 b7 c6 3d
       0.10469493 -0.23829813 0.27683392 0.0970304
0000d0 78 68 65 3e f4 fd 25 be 44 89 ca 3d ae 23 b0 3d
       0.22403133 -0.16210157 0.098894626 0.08600555
0000e0 3c a3 56 3d 72 fa 88 3e 87 47 b6 bb 8d 8b 0d be
       0.052401766 0.26753575 -0.005562726 -0.13822766
0000f0 a8 1c 3b be f1 75 29 be 42 c6 a1 bd e0 47 af bd
       -0.1827265 -0.16548897 -0.07899143 -0.08558631

feature.trunk.0.trunk.2.running_var f4 [64]
000000 a2 1c e6 3b fb 8b 85 3c 04 ff cd 3c 88 ca a1 3c
       0.0070224563 0.0163021 0.025146015 0.019749895
000010 29 f0 c2 3b 01 54 70 3b 73 25 ba 3d dc e9 a4 3a
       0.0059490395 0.0036671164 0.09089174 0.0012581903
000020 9f 63 03 3d 14 02 a7 3c bf 46 79 3b 14 3e 38 3c
       0.032077428 0.020386733 0.0038036553 0.011245269
000030 66 95 80 3d 11 df b2 3b ee 5d aa 3b 94 1e 8d 3c
       0.062784955 0.0054587205 0.0051991856 0.017226495
000040 58 a4 0c 3d a4 51 91 3c e0 b0 c7 3b d3 b9 0e 3c
       0.034336418 0.017739125 0.006094083 0.008711296
000050 87 94 97 3c 42 12 36 3c c0 ba ae 3c c1 f1 0e 3c
       0.01850344 0.011112751 0.021329284 0.008724631
000060 95 1f 1f 3e 28 10 ae 3b 11 1e ac 3d c1 ec 60 3b
       0.15539391 0.0053119846 0.08404172 0.0034320804
000070 bb e4 ba 3b 00 ae f7 3c b7 cc b3 3c e5 4c 9d 3b
       0.0057035363 0.030234337 0.021948202 0.0048004263
000080 2c 9b 11 3c 4b 0c c6 3c 38 50 3b 3c c8 ec 68 3b
       0.0088870935 0.024175784 0.0114327 0.0035541523
000090 00 92 76 3c 7a 7f 57 3c 62 22 af 3b b4 84 5d 3c
       0.015049458 0.013152951 0.005344675 0.013520408
0000a0 d9 db 1d 3c b5 c7 f5 3b 9d 79 10 3d 7e 63 14 3d
       0.009634935 0.0075006136 0.03527223 0.036227696
0000b0 9a 59 a5 3c 3b 35 cd 3c 99 d7 e6 3b 59 1c 72 3b
       0.020184327 0.025049796 0.007044744 0.0036943166
0000c0 4c 8f 42 3c 49 90 b8 3c 4a 1e 5e 3d 62 51 5f 3c
       0.011874985 0.022529738 0.054228105 0.013630243
0000d0 5e 8f b1 3c b3 21 ee 3a 67 d2 ec 3b b8 45 0b 3d
       0.021674808 0.0018168002 0.0072272304 0.034002036
0000e0 81 4b 96 3c 7e 1d 4e 3b 92 1b d5 3b fe 06 45 3d
       0.01834655 0.0031450684 0.006503531 0.04810237
0000f0 98 e0 7b 3b f8 e9 d3 3c 90 02 01 3d 09 ec bd 3b
       0.003843343 0.025868401 0.031496584 0.00579596

feature.trunk.1.C.weight f4 [64, 64, 3, 3]
000000 09 31 e3 bd 50 17 8c 3d d1 ff 66 3e 50 6e 8b be
       -0.11093337 0.06840384 0.22558524 -0.272326
000010 26 1e 22 bd 42 a8 cc bb 71 43 62 be 39 58 0e 3e
       -0.039579533 -0.006245644 -0.2209604 0.13900842
000020 8a 98 18 3b b0 af 0e be f0 31 d0 3d 85 15 1c 3e
       0.002328428 -0.13934207 0.10165775 0.15242584
000030 30 79 3f bd 84 83 59 bc 11 93 3a bd 89 1e 1f be
       -0.046746433 -0.013275985 -0.04555041 -0.15538992
000040 19 80 93 bb be ee 15 be 15 b7 29 3d d1 4f ec 3d
       -0.0045013544 -0.14641854 0.041434366 0.11538661
000050 d6 0c ba 3d e5 11 fe bd bb 43 0a be 46 7b 0a bd
       0.090844795 -0.12405757 -0.135024 -0.03380897
000060 cf 54 9c be 6f 20 a9 be b5 a1 44 be fd 7e 6a be
       -0.30533454 -0.33032557 -0.19202311 -0.22900005
000070 64 9d 88 3d 2e cd b3 3d ee 45 a6 be 3d 6d a3 bc
       0.06670645 0.08779369 -0.32475227 -0.01994955
000080 d1 77 78 3d 5f df 9f be 91 70 c1 bb 3e 48 d4 3b
       0.06066114 -0.31225106 -0.0059033115 0.0064783385
000090 42 7b 94 be 5e b9 c1 bd f0 c1 90 3d b4 71 0d be
       -0.29000288 -0.09459184 0.07068241 -0.13812906
0000a0 6c 5f ea bd c0 b8 d4 3d 6a dd 0c bd 77 76 e2 bc
       -0.114439815 0.10386801 -0.034390844 -0.027644379
0000b0 a8 58 66 3d 77 47 bf bd 68 bd d3 3d 68 4c 2f bd
       0.056236893 -0.09339803 0.10338861 -0.042797476
0000c0 9c 22 0f be d8 ba 10 3e 5d 8e b5 bd ef 69 a2 bd
       -0.13978046 0.14133775 -0.08865044 -0.079303615
0000d0 d1 e3 f2 3d 75 c5 20 be 16 99 54 bd ae fd af 3a
       0.11859859 -0.15700324 -0.051903807 0.0013427043
0000e0 f0 04 07 3e d5 3c 77 be c9 7b c9 bd 8c cd 73 3d
       0.13185477 -0.241443 -0.09838063 0.059522197
0000f0 00 be f6 be 3c c9 40 be 2f 9a c0 bb 60 91 c4 3b
       -0.48191833 -0.18826765 -0.005877755 0.0059987754
000100 96 62 81 3d db db 37 3d 88 f8 8d bc a3 82 5e 3e
       0.06317632 0.044887405 -0.017330423 0.21729521
000110 21 83 24 be 9a cd 37 3e 3d e9 4f bd ed ea 8f 3d
       -0.16065647 0.17949525 -0.050759543 0.070272304
000120 84 96 dc bd 08 04 8e 3d 2a 55 67 bc 3b 18 9b be
       -0.10770896 0.06934363 -0.014119426 -0.30291924
000130 28 6a 4e bd db 5c b9 bc 23 e1 2d be 85 98 4c be
       -0.050394207 -0.022627285 -0.16980414 -0.19980057
000140 0d a0 05 3e 3b 53 1e be 32 c1 1a bc 01 31 5d 3d
       0.13049336 -0.15461437 -0.009445475 0.054001812
000150 46 c4 a1 be f9 d1 07 bd 49 aa 18 3d d1 0e 7f be
       -0.31595057 -0.03315923 0.03727177 -0.24907996
000160 de 90 08 be a5 08 e1 3a a6 60 28 be 03 04 75 3e
       -0.13336512 0.0017168714 -0.16443118 0.23927312
000170 5e cb 9d 3d e1 a2 10 be f7 50 91 3d 6d 1c 47 3e
       0.07704805 -0.14124633 0.07095521 0.19444437
000180 91 c9 4e be f9 5b 60 3d 1f 17 cd b9 c3 0f f1 3c
       -0.20194079 0.054775212 -0.00039117874 0.029426461
000190 23 8a 47 bd 11 95 f6 3d 81 53 1c be 0b 1e 30 bd
       -0.04871572 0.12040151 -0.15266229 -0.0429974
0001a0 39 f1 5c 3e 9e 63 97 be 96 b8 05 3a b3 48 99 3c
       0.21576394 -0.2956819 0.0005101053 0.018711424
0001b0 1d 7f 1c be 07 fd 7e 3d 8d 2a d1 3d 70 a2 71 be
       -0.15282865 0.062253024 0.10213194 -0.23597121
0001c0 2f 62 37 be 7a bf 51 bc f9 47 1a be d7 d6 01 be
       -0.17908548 -0.012801999 -0.15066518 -0.12679611
0001d0 a1 64 8b 3d f4 08 7a bc 29 6d 2e bd 8d 87 dd bd
       0.06806303 -0.015260924 -0.042584572 -0.1081687
0001e0 0c 33 3b be 89 99 e6 bd 57 7a 1f 3d ee 79 ed 3d
       -0.18281192 -0.11259753 0.03893503 0.11595522
0001f0 2d 0a b7 bd 32 08 59 bc 1c c5 01 3d cb 2e 69 3e
       -0.08937488 -0.013246583 0.03168212 0.22771756
000200 63 3e 34 3c cb 0d 6d bd 3b 2f 95 bc df 30 f7 bd
       0.011001202 -0.057874482 -0.018210998 -0.12069868
000210 d1 8f 56 bb 71 9e 9d bc cf b0 ea bd 9f e1 6d be
       -0.003273953 -0.01924059 -0.11459505 -0.23230599
000220 f9 a6 bc bd c3 d3 c3 3c 9a 8b 07 be 38 7d f3 bb
       -0.09211535 0.023904687 -0.13236848 -0.0074306987
000230 49 a2 06 3e 29 56 65 3d f6 90 1a 3c 84 1b af 3c
       0.13147844 0.05599037 0.009433975 0.021375425
000240 1f 8b cb bd 25 19 8c bd 65 db 5a 3d 01 90 24 be
       -0.099386446 -0.068407334 0.053431887 -0.16070558
000250 53 95 98 bd 6c b6 20 3d db 73 87 3c 87 0c 86 3d
       -0.07450356 0.03923647 0.016534736 0.06545358
000260 08 25 84 bc 39 7a 5e be b5 a7 84 bd 55 d9 62 3d
       -0.01613094 -0.21726312 -0.064773 0.055383045
000270 7e dc 86 be c0 34 37 be 42 bf 11 3e 3a 47 1d be
       -0.26340097 -0.17891216 0.14233115 -0.15359202
000280 60 fd 9d bc 0c b4 2d 3e 19 77 21 3d 36 73 75 3e
       -0.019285858 0.16963214 0.03942022 0.2396973
000290 e4 51 95 3d d9 06 f8 bc 44 b1 07 be f2 ed 33 3e
       0.0729101 -0.030276703 -0.13251215 0.17571238
0002a0 2e 9e 9f bd 73 42 d2 3d 62 ef 01 3e b1 88 58 bd
       -0.07793842 0.102665804 0.12688974 -0.052864734
0002b0 ca 3d 13 3e bd 64 57 bd fb 6f a3 bc bd 87 c8 3c
       0.1437904 -0.052586306 -0.019950857 0.024478788
0002c0 e9 f4 01 bb 2c 96 d8 3d bc 44 b0 bd 50 36 dd bc
       -0.0019829816 0.10575518 -0.0860686 -0.027003437
0002d0 4e 73 47 bc 85 5b d5 3d fb 4b 9c 3e 59 7a c3 be
       -0.012173487 0.104178466 0.30526718 -0.3817928
0002e0 48 4e 1a be 9b bc a7 3d 87 24 11 be 5e 48 90 bd
       -0.15068924 0.081902705 -0.1417409 -0.07045053
0002f0 7d ea 42 3e cc 17 50 be ee 7c cc 3c 55 ca 2c bd
       0.19034763 -0.20321578 0.024961915 -0.042185146
000300 3e f5 3e bd 08 f0 5f 3d c4 bf 05 3d a2 7e b6 bd
       -0.0466206 0.05467227 0.032653585 -0.08910872
000310 84 98 bc 3d c0 33 20 be 25 bb dc bc 2e 63 a1 3d
       0.092087775 -0.15644741 -0.026944706 0.07880245
000320 82 a3 52 3e cf c8 79 be 51 71 6a 3c 90 86 3d 3e
       0.20570186 -0.24393009 0.014309243 0.18508363
000330 4b 0f 7b be 7a 00 22 3d 3a 40 24 3d bd 44 a9 be
       -0.24517553 0.039551236 0.040100314 -0.33060256
000340 d0 5c 0b be 23 ae 3e 3d db bc 8f be 9f 07 3b 3c
       -0.13609624 0.04655279 -0.28073773 0.011415391
000350 70 a6 9c bd e5 8b d0 bd fd 87 98 bd e9 0f 71 3d
       -0.07648933 -0.10182933 -0.07447813 0.058853064
000360 95 0c a3 bd a1 84 ba 3b 55 06 4a 3e 35 8c af bd
       -0.07961384 0.00569208 0.19728978 -0.08571664
000370 f4 d2 c0 3c 7b d8 b9 bb 36 7b 1c be 8f 96 5e bd
       0.02353809 -0.0056715584 -0.15281376 -0.054342803
000380 cc 4f d9 3c f8 17 ab 3d 9b a7 48 3d 07 d0 3f 3e
       0.026527308 0.08354181 0.048987966 0.187317
000390 f8 48 83 bd cf d9 0c 3c c3 c4 07 3e f6 5e 86 be
       -0.06410402 0.0085968515 0.13258652 -0.26244324
0003a0 18 eb 1b bd f5 39 14 3e 63 6b 18 3d 2d 07 4f 3e
       -0.038066 0.14475234 0.037211787 0.20217581
0003b0 87 42 d7 3d 09 44 80 be 5b 31 31 bd 3e 6c 00 be
       0.10510736 -0.25051907 -0.04325996 -0.12541291
0003c0 f8 ec a7 be 36 19 54 bb e2 04 71 3e e2 ce b2 3d
       -0.3279798 -0.003236366 0.23537019 0.08730866
0003d0 04 5b 3d 3e 85 d2 bf 3d ab 25 e3 bc 10 28 24 3e
       0.18491751 0.09366325 -0.027727922 0.16030908
0003e0 59 ef 6f bd bb d6 2d 3d 6d 95 35 3e ca 02 2f bd
       -0.05857787 0.04244111 0.17732783 -0.04272727
0003f0 99 2c be 3e df 52 ac 3e a1 38 9f bd de 37 ea 3b
       0.371434 0.33656976 -0.07774473 0.007147773

feature.trunk.1.C.bias f4 [64]
000000 d1 f2 35 41 ac d2 30 41 4e 05 34 41 17 88 2f 41
       11.371781 11.051434 11.251295 10.970725
000010 5a 30 34 41 d4 de 33 41 68 43 38 41 8f 3e 35 41
       11.261805 11.241901 11.516457 11.327773
000020 42 c8 31 41 cf 94 36 41 18 bb 35 41 1b 2c 35 41
       11.111391 11.41133 11.358177 11.323268
000030 ee cb 31 41 1e 27 32 41 1e 0d 33 41 75 d1 37 41
       11.1122875 11.13455 11.190702 11.488637
000040 25 2a 2f 41 ff 58 30 41 c4 fb 32 41 d5 96 31 41
       10.947789 11.021728 11.186466 11.099324
000050 e6 02 33 41 04 df 30 41 72 58 2f 41 f5 03 35 41
       11.188208 11.054447 10.959093 11.313466
000060 a2 7c 35 41 c6 5b 30 41 6f bb 33 41 7d 68 37 41
       11.342928 11.022406 11.23326 11.46301
000070 cd 22 35 41 85 6e 36 41 39 ac 32 41 1d eb 32 41
       11.320996 11.401982 11.167047 11.182401
000080 c6 c7 33 41 a8 13 31 41 b8 2c 32 41 ae b9 32 41
       11.236273 11.067299 11.135918 11.170332
000090 6a bf 33 41 7a a8 31 41 79 d8 30 41 53 bc 2e 41
       11.234232 11.103632 11.05285 10.920978
0000a0 24 3b 33 41 75 bb 2c 41 93 1e 33 41 34 cb 36 41
       11.201939 10.795766 11.194964 11.42461
0000b0 ff e3 33 41 e3 63 33 41 7c a8 34 41 57 68 35 41
       11.243163 11.211886 11.291134 11.337974
0000c0 53 73 33 41 5d f3 37 41 e6 21 3a 41 35 7d 38 41
       11.215655 11.496915 11.633276 11.530568
0000d0 50 6e 34 41 70 ad 30 41 64 36 33 41 54 05 31 41
       11.276932 11.042343 11.200779 11.063801
0000e0 e8 13 37 41 97 3e 2c 41 3d e9 30 41 84 d6 36 41
       11.44236 10.765281 11.056943 11.427372
0000f0 36 d3 34 41 e7 fa 2f 41 8b b3 34 41 ff 66 31 41
       11.301565 10.998755 11.293834 11.087646

feature.trunk.1.BN.weight f4 [64]
000000 69 a8 71 3f ec d7 86 3f 77 00 8f 3f a2 a1 35 3f
       0.943976 1.0534644 1.1172017 0.7094976
000010 5c a4 93 3f 46 d7 7f 3f 71 3d 6a 3f 80 68 8a 3f
       1.1534534 0.99937856 0.915 1.0813141
000020 16 b3 78 3f 6d f2 8b 3f 48 1b 80 3f ad 52 5a 3f
       0.97148263 1.0933357 1.0008326 0.85282403
000030 b2 dc 66 3f 37 d4 65 3f 16 c2 70 3f c9 f4 7a 3f
       0.90180504 0.8977694 0.9404615 0.9802976
000040 37 34 85 3f b7 9a 82 3f 4f cf 36 3f b0 21 9c 3f
       1.040656 1.0203465 0.7141008 1.2197781
000050 91 d0 82 3f cd a9 3c 3f bc 65 7d 3f 69 81 70 3f
       1.02199 0.73696595 0.9898336 0.93947464
000060 bf e1 5c 3f 0d 8a 56 3f 24 eb 7b 3f 56 c7 4c 3f
       0.8628196 0.838044 0.9840567 0.7999166
000070 bf ac 52 3f bb 8f 83 3f 55 ca 59 3f c6 b7 85 3f
       0.8229484 1.0278238 0.8507436 1.0446708
000080 44 af 4b 3f 43 66 8c 3f 54 80 60 3f 8a 59 82 3f
       0.7956431 1.0968708 0.87695813 1.0183575
000090 46 74 53 3f b8 7e 7a 3f e9 ec 87 3f 4d ba 92 3f
       0.82599294 0.9784961 1.0619174 1.1463104
0000a0 ba 91 88 3f 31 31 68 3f b8 f3 8e 3f e4 b1 5f 3f
       1.0669472 0.9070006 1.1168127 0.87380815
0000b0 ea 4f 8d 3f 39 50 86 3f c8 0d 35 3f 7a 49 77 3f
       1.1040013 1.0493232 0.70724154 0.9659649
0000c0 d4 99 65 3f 92 58 59 3f 89 20 68 3f 38 d2 88 3f
       0.8968785 0.8490077 0.90674645 1.0689154
0000d0 fd 0f 7b 3f 9e 35 27 3f 8c e6 64 3f 1a 67 51 3f
       0.9807127 0.6531619 0.89414287 0.81797945
0000e0 e4 f2 54 3f 9b 65 65 3f 75 b2 7c 3f 09 5e 87 3f
       0.8318312 0.8960816 0.98709804 1.0575572
0000f0 0d 3a 86 3f ad e1 49 3f 55 9a 84 3f c0 83 88 3f
       1.0486466 0.7885998 1.0359598 1.0665207

feature.trunk.1.BN.bias f4 [64]
000000 bc 79 da be db 30 5e be 4a 15 f8 be df 5c c6 be
       -0.42671 -0.21698324 -0.48453742 -0.3874273
000010 08 37 f0 bd b9 1b c1 be 85 4a e4 be 0c a7 c0 be
       -0.117292464 -0.37716463 -0.44588104 -0.37627447
000020 27 02 41 be 8f 57 c1 be f3 c7 99 be 3c d4 fb be
       -0.18848477 -0.37762114 -0.30035362 -0.4918536
000030 8d e1 06 bf 7e cf 99 be 66 a2 c0 be a0 94 31 be
       -0.52687913 -0.30041116 -0.376239 -0.17341852
000040 86 fb be be a6 6c 54 be ee f4 f5 be 9c 7d b2 bd
       -0.37301272 -0.20744571 -0.4803843 -0.08715364
000050 18 20 a2 bd b4 3f ab be af 16 d8 be 31 ca 3e be
       -0.07916278 -0.3344704 -0.42204806 -0.18631817
000060 30 6f f5 be 85 03 d3 be 5f aa 5c be d5 b2 e9 be
       -0.47936392 -0.41213623 -0.21549366 -0.4564425
000070 81 55 eb be 16 64 c3 be d5 2e 69 be d6 fd 8a be
       -0.45963672 -0.38162297 -0.22771771 -0.27146786
000080 1c 13 d8 be 3c 88 01 bf 2b fc 42 be 4d 3f c5 be
       -0.4220208 -0.505985 -0.19041507 -0.38524857
000090 f1 10 c0 be 89 7f c7 be e9 0e cf bd d5 26 d6 3d
       -0.37512925 -0.3896449 -0.10110266 0.10456625
0000a0 23 f7 c9 be 1e 0b 1e bf 1d f5 63 be 8a d2 db be
       -0.39446363 -0.61735713 -0.22261472 -0.42934066
0000b0 2d c2 9f be f0 86 3f be f9 a4 c3 be 0c 3e 0b bf
       -0.31202832 -0.18703818 -0.38211802 -0.5439155
0000c0 c2 34 4e be c0 ec 0e bf 64 1b 0b bf 92 e8 10 bf
       -0.20137313 -0.5583 -0.5433867 -0.56604874
0000d0 98 fc e1 be 75 3e d5 be 77 30 b6 be f1 70 c5 be
       -0.44138026 -0.41649213 -0.3558385 -0.3856273
0000e0 e6 3c b3 be 5b bc be be da d7 a8 bd 74 22 13 bf
       -0.350074 -0.3725308 -0.082442954 -0.57474446
0000f0 98 66 03 bf f2 5b 77 be c8 8b aa bd 70 d6 66 bd
       -0.5132842 -0.24156168 -0.083274424 -0.056356847

feature.trunk.1.BN.running_mean f4 [64]
000000 88 e3 dc 40 0f 91 5b 40 2a 03 19 41 4a a0 2b 41
       6.902775 3.4307287 9.563272 10.726633
000010 a6 f9 1a 41 50 c0 16 41 cf 6a 03 41 d2 97 21 41
       9.685949 9.421951 8.213576 10.0995655
000020 97 43 0a 40 53 a0 91 40 20 fc e1 40 95 2c 05 41
       2.1603754 4.550821 7.062027 8.323384
000030 a8 2e 78 3f a0 6c 0d 41 af 6e ef 40 f3 f8 90 40
       0.9694619 8.83902 7.482261 4.5303893
000040 b1 2d 81 40 cd 25 21 41 fe f9 16 41 91 c0 98 3f
       4.0368276 10.071729 9.436033 1.1933767
000050 d4 98 c3 40 41 19 9d 40 6c a2 0a 41 e5 d2 a1 40
       6.112406 4.9093328 8.664654 5.056994
000060 2e 99 28 41 4a 38 e1 40 3a f9 5a 40 8d 81 71 41
       10.537397 7.038121 3.4214616 15.094129
000070 d8 ce 0d 41 a3 0b 54 40 2f 8a c5 40 d4 61 7f 40
       8.862999 3.3132102 6.173118 3.990346
000080 de 05 1a 41 4a 07 f9 40 05 62 a1 40 81 54 ba 3f
       9.626432 7.78214 5.0432153 1.4557039
000090 0b 94 0a 41 00 96 18 41 c6 9e a3 40 1c 8e ea 40
       8.661143 9.536621 5.1131315 7.3298473
0000a0 5d fa f3 40 62 58 08 41 3c 42 48 40 0c 48 06 41
       7.624312 8.521578 3.1290426 8.39259
0000b0 92 ae 8a 40 95 2c 8a 40 d4 54 54 41 9a 1c 24 41
       4.33381 4.317942 13.27071 10.256983
0000c0 fb 73 c2 40 6e f9 35 41 e5 f4 af 40 56 d3 0a 41
       6.076658 11.373396 5.4986444 8.676596
0000d0 8b d8 e2 40 24 03 a9 40 6a d5 8a 40 b4 91 d1 3f
       7.0889335 5.2816334 4.3385515 1.637259
0000e0 87 9c 13 41 1d 16 0d 41 8c f7 d3 3f c3 5f 06 41
       9.225715 8.817899 1.655992 8.398379
0000f0 f3 99 10 41 c0 3e 94 40 ae 6b 60 3f 4a cf 43 41
       9.037585 4.63266 0.87664306 12.238108

feature.trunk.1.BN.running_var f4 [64]
000000 6f b9 eb 41 5a 87 a0 41 4e 84 c1 41 49 25 f2 41
       29.465544 20.06609 24.189602 30.268206
000010 c6 b7 b2 41 79 35 4c 41 a1 c5 6c 41 a4 08 ca 41
       22.339733 12.763055 14.798249 25.25422
000020 a8 d7 eb 41 0c 9d 7d 41 f2 ef 8f 41 5b cd 9d 41
       29.4803 15.8508415 17.99216 19.725271
000030 aa 25 0a 42 df 8e 88 41 b3 60 16 42 db 3e 74 41
       34.53678 17.069761 37.594433 15.265346
000040 38 aa 1b 42 13 ed 18 42 90 fa 50 41 e7 df e7 41
       38.91623 38.231518 13.0611725 28.984327
000050 ca af b1 41 bb 1c e8 41 06 f5 ce 41 4d 93 c0 41
       22.210835 29.014029 25.86964 24.071924
000060 a0 f6 43 41 7a 64 eb 41 5a 9c b1 41 9c c2 b7 41
       12.247711 29.42406 22.201344 22.970024
000070 d3 bb af 41 27 29 a1 41 71 b0 ad 41 62 ad fe 41
       21.966711 20.145094 21.711153 31.83466
000080 69 1b b4 41 87 17 bd 41 36 c3 d0 41 a4 27 e9 41
       22.513384 23.636488 26.095318 29.144356
000090 07 8d e1 41 fb b1 b4 41 2e f2 ee 41 7c 57 e2 41
       28.193861 22.586905 29.868252 28.292717
0000a0 a7 b0 e1 41 f9 56 8e 41 e5 a7 b5 41 d0 81 cd 41
       28.211256 17.792467 22.70698 25.688385
0000b0 c1 af 79 41 64 50 8d 41 ee a8 a9 41 78 db 38 41
       15.605409 17.664253 21.207485 11.553581
0000c0 43 f6 1a 42 b7 b9 e6 41 de 52 cc 41 01 94 9c 41
       38.74049 28.840681 25.540462 19.572268
0000d0 55 a0 f3 41 b4 6a ec 41 7a 4d b5 41 0b ea 1f 42
       30.453287 29.552101 22.66283 39.978558
0000e0 94 ff 4b 41 9a 64 89 42 e4 a9 de 41 da 7a 94 41
       12.749897 68.69649 27.832954 18.559986
0000f0 1f 41 79 41 12 13 e1 41 b8 71 c7 41 23 d6 88 41
       15.578399 28.134312 24.930527 17.104559
